Movie data/SimilarityModel.tflite (tflite, 436800 bytes, 2 tensors)

brute_force_8/MatMul/ReadVariableOp f4 [1000, 32]
0.13034593 0.55340815 -0.7860359 0.45758134 -0.94732785 0.665055 0.6668347 0.6773176
0.6736147 0.8293333 0.6254385 0.8118176 -0.8378412 -0.71052814 -0.6825911 0.5548208
0.89682364 0.87096876 -0.7601947 -0.12651594 0.18207426 -0.694916 -0.6656995 -0.79628915
-0.1016008 -0.31512746 -0.86741036 0.8848657 -0.8563788 0.9213405 -0.8097676 -0.83835965
-0.82927734 -0.49788955 -0.4721321 0.81352675 -0.39709955 0.5826953 -0.71880955 -0.81392545
0.7812555 0.82167363 -0.59618217 0.70524555 -0.86431116 -0.8506942 -0.8181447 0.78053784
-0.5691047 0.6625892 -0.45736256 0.69618356 0.8247999 0.5769765 0.79845375 0.7981452
-0.7395623 -0.74956274 0.8329589 -0.5741974 0.67799157 -0.83967817 -0.4896709 -0.5939258
-0.58439994 0.8368137 -0.71979916 -0.70926124 0.8480432 0.8634058 0.47327963 0.80566615
-0.78870726 -0.23966901 0.65493554 -0.03461382 -0.72207326 0.7846378 -0.8033735 -0.2850005
-0.7736379 -0.895706 0.7241798 0.716519 0.8534716 0.6583425 0.7060601 0.74789166
0.84034646 -0.8012882 -0.45571798 0.77817875 -0.5007659 0.8197587 0.80467254 0.51540637
0.63961846 -0.69924444 0.7659609 0.6598255 0.9245802 -0.7718443 -0.85143596 0.6335795
0.7882986 -0.72925234 -0.84419763 -0.79708946 -0.4420616 0.5359979 -0.36689404 -0.34233522
0.7635701 0.9410246 -0.7879441 0.83635014 0.5384118 -0.46894366 0.8150415 0.7560983
0.7851415 -0.6201079 0.6915045 -0.35527194 0.040609766 0.86116475 0.6932136 0.8669694
-0.60787874 -0.6058294 -0.8132783 0.5703501 -0.7373277 0.84278256 -0.74147654 -0.75677764
-0.6401658 0.6365256 0.48445404 -0.7552033 -0.71394974 -0.7598525 -0.5964709 -0.73289704
-0.6784246 -0.71534413 0.64169955 0.2824374 0.66399443 0.81630075 -0.80341613 -0.727924
-0.5933156 0.678453 0.6786638 -0.7566149 0.8257711 -0.76436174 0.84297806 0.79269177
-0.59508336 0.5879427 0.69022167 -0.028357884 0.8396998 -0.8535265 -0.17306298 0.85154516
0.8099175 -0.7482385 0.29748616 0.8815746 0.7110088 0.5455527 0.7911842 -0.6911841
-0.632533 0.7632891 -0.61267483 0.76817214 -0.7608183 -0.79774076 0.8459685 -0.81506896
0.64991355 -0.40646535 0.712444 -0.80869395 0.72612107 -0.7266325 -0.79596806 -0.8243385
0.70085764 0.85129017 0.76208353 -0.838731 -0.9871162 0.82793224 0.7982081 0.8196822
-0.61666447 -0.7637877 -0.59142756 -0.25804427 -0.6197968 0.6173146 0.02422609 -0.51341057
-0.71440506 -0.81572175 0.43599865 -0.74798816 0.8207719 -0.82212365 0.9303281 0.7936021
0.71905535 -0.274539 0.59260446 0.8369994 0.6373141 0.590853 0.7546801 -0.6141509
-0.7125823 0.8253575 -0.70909494 0.7964759 -0.17921278 -0.7470824 -0.8367348 0.6858188
-0.10528923 0.79608536 -0.83858 0.7146972 0.45319092 0.66312265 0.83866763 0.8377522
-0.39477092 0.87070507 -0.63480914 -0.74969137 -0.89105034 -0.5255125 0.5862185 -0.7488462
0.77658015 -0.8320742 -0.7094733 -0.7324799 -0.46066284 0.7117953 0.83386 0.62493116
00000000: 6779 053e 28ac 0d3f a639 49bf 1a48 ea3e
00000010: 1484 72bf 0b41 2a3f aeb5 2a3f b064 2d3f
00000020: 0372 2c3f 304f 543f bd1c 203f 47d3 4f3f
00000030: c37c 56bf 2ce5 35bf 4abe 2ebf bc08 0e3f
00000040: 3c96 653f cff7 5e3f 1f9c 42bf 658d 01be
00000050: ad71 3a3e 04e6 31bf 486b 2abf 9bd9 4bbf
00000060: 1514 d0bd 6358 a1be 9b0e 5ebf 8f86 623f
00000070: a43b 5bbf f9dc 6b3f ee4c 4fbf bd9e 56bf
00000080: 854b 54bf 61eb febe 4cbb f1be 4a43 503f
00000090: a250 cbbe 852b 153f e703 38bf 6b5d 50bf
000000a0: 5c00 483f 3459 523f 659f 18bf f98a 343f
000000b0: 7f43 5dbf 18c7 59bf ee71 51bf 54d1 473f
000000c0: d8b0 11bf 729f 293f 6d2b eabe 1639 323f
000000d0: 1626 533f bbb4 133f 7767 4c3f 3e53 4c3f
000000e0: f453 3dbf 58e3 3fbf cb3c 553f 9afe 12bf
000000f0: db90 2d3f 26f5 56bf 25b6 fabe 850b 18bf
00000100: 3c9b 15bf 6c39 563f c244 38bf 2592 35bf
00000110: 5c19 593f 2a08 5d3f b551 f23e 2340 4e3f
00000120: b8e8 49bf cb6b 75be dba9 273f 39c7 0dbd
00000130: cbd9 38bf 06de 483f e3a9 4dbf 96eb 91be
00000140: 220d 46bf fd4c 65bf d963 393f ca6d 373f
00000150: 1d7d 5a3f 2289 283f 5bc0 343f d475 3f3f
00000160: f220 573f 3921 4dbf de53 e9be b936 473f
00000170: 3232 00bf b5db 513f 05ff 4d3f acf1 033f
00000180: 09be 233f af01 33bf 0316 443f 53ea 283f
00000190: 4ab1 6c3f 9797 45bf b5f7 59bf 4432 223f
000001a0: f0cd 493f 48b0 3abf 561d 58bf 0e0e 4cbf
000001b0: e655 e2be 2937 093f 89d9 bbbe 9046 afbe
000001c0: 5479 433f fde6 703f b4b6 49bf 0b1b 563f
000001d0: 5bd5 093f 6219 f0be 8fa6 503f a88f 413f
000001e0: 09ff 483f 64bf 1ebf 7006 313f 34e6 b5be
000001f0: 6d56 263d 4b75 5c3f 7276 313f b5f1 5d3f
00000200: f19d 1bbf a317 1bbf 0233 50bf 7702 123f
00000210: 82c1 3cbf 99c0 573f 68d1 3dbf 2ebc 41bf
00000220: e8e1 23bf 57f3 223f 5c0a f83e 0155 41bf
00000230: 69c5 36bf b285 42bf 51b2 18bf 249f 3bbf
00000240: 3cad 2dbf cb20 37bf 6c46 243f a39b 903e
00000250: 8afb 293f 16f9 503f aeac 4dbf 3a59 3abf
00000260: 88e3 17bf 19af 2d3f e9bc 2d3f 84b1 41bf
00000270: bc65 533f 36ad 43bf 69cd 573f d9ed 4a3f
00000280: 6257 18bf 6a83 163f 5eb2 303f cb4e e8bc
00000290: 91f6 563f b680 5abf 6c37 31be ddfe 593f
000002a0: c156 4f3f 8f8c 3fbf 1b50 983e dfae 613f
000002b0: ac04 363f 57a9 0b3f 0c8b 4a3f 71f1 30bf
000002c0: afed 21bf ea66 433f 42d8 1cbf eea6 443f
000002d0: fdc4 42bf bd38 4cbf 6491 583f 5ca8 50bf
000002e0: bc60 263f 3a1c d0be bb62 363f 9106 4fbf
000002f0: 12e3 393f 9604 3abf 90c4 4bbf d907 53bf
00000300: 686b 333f 27ee 593f e817 433f 13b7 56bf
00000310: a6b3 7cbf 5ef3 533f 5e57 4c3f b1d6 513f
00000320: b9dd 1dbf 9787 43bf cc67 17bf 611e 84be
00000330: 01ab 1ebf 5408 1e3f cb75 c63c e06e 03bf
00000340: 40e3 36bf 24d3 50bf 373b df3e 277c 3fbf
00000350: 1b1e 523f b276 52bf fb29 6e3f 8229 4b3f
00000360: 0314 383f 6090 8cbe edb4 173f 9845 563f
00000370: 0427 233f 2442 173f b732 413f fe38 1dbf
00000380: cb6b 36bf a14a 533f 3f87 35bf d8e5 4b3f
00000390: 8e83 37be cb40 3fbf 4034 56bf d291 2f3f
000003a0: e1a1 d7bd 40cc 4b3f 2ead 56bf 65f6 363f
000003b0: a408 e83e 68c2 293f ecb2 563f ee76 563f
000003c0: 6a1f cabe 87e6 5e3f da82 22bf c6eb 3fbf
000003d0: e01b 64bf fd87 06bf 6a12 163f 62b4 3fbf
000003e0: f5cd 463f d102 55bf 0ba0 35bf cd83 3bbf
000003f0: 00dc ebbe 3738 363f d977 553f 7dfb 1f3f

brute_force_8/sequential_4/embedding_4/embedding_lookup f4 [1001, 32]
-0.027365578 0.037224617 0.025107328 -0.04531982 0.042346727 -0.047483303 0.034896854 0.040839586
0.0095623955 0.018490795 -0.040796317 -0.026829958 0.015661571 0.013609085 0.041488852 -0.041643716
0.0029190183 -0.024258947 -0.006957341 -0.035435427 0.041228 0.03088237 0.031429026 0.046407353
0.0033219457 0.028852593 0.01708274 -0.03633337 0.03050274 0.037135687 -0.028330553 -0.033594884
0.71208996 -0.7343879 -0.73474616 0.886918 0.5733265 -0.39457282 -0.9286464 -0.8134783
0.62477404 -0.71870905 -0.4751021 0.50248504 0.832241 0.66918784 -0.60345745 -0.75988495
0.87484956 0.5375179 -0.5948494 0.38533717 -0.82592005 0.70356125 0.912652 0.60329443
-0.5955295 -0.8775403 0.3062849 0.7793169 -0.86980987 -0.8865246 -0.7989421 -0.12368783
-0.8084573 0.6192817 0.60761577 -0.8077111 -0.80057156 -0.72536594 0.7466483 0.79456466
-0.28088054 -0.5586031 -0.8333 0.60062563 0.67290705 -0.752334 0.7942074 -0.8000945
0.7474764 0.82703173 -0.83805096 0.91703814 -0.7885445 0.8354002 0.078201905 -0.35637915
0.65581536 -0.81837606 0.54400283 0.570629 0.70879686 -0.8518481 -0.8151273 0.6308217
-0.57142794 0.47096646 -0.795302 -0.7564896 -0.6590282 0.7729669 0.7002611 0.94951135
-0.832714 -0.5141291 -0.8916136 0.72383094 -0.82430613 -0.5032783 0.636284 0.8432124
-0.70363975 0.7948893 -0.6660354 -0.15051857 -0.78325725 -0.55962795 0.58684576 -0.7059111
-0.6124983 -0.7650585 -0.79565924 0.85214525 0.85898554 0.8877479 0.29104137 -0.79355544
-0.14058803 -0.76483977 -0.78671277 -0.5994978 0.6514819 -0.8659546 -0.8120491 0.2991584
-0.8114194 -0.80508566 0.7606803 -0.93043715 0.5739361 -0.76755786 0.7638039 -0.16522872
0.84765714 -0.77667814 -0.9373083 -0.87498915 -0.77628225 -0.7746519 -0.7357884 -0.70137846
-0.57406336 -0.6465047 -0.54793954 0.5184781 -0.8571857 -0.02865183 0.47052407 -0.83408207
0.68622786 0.8316855 -0.8687771 0.13657403 -0.70475674 0.81517303 0.8221194 0.47015485
0.8143195 -0.7325322 0.86777663 -0.7723124 0.65340495 -0.85121673 -0.7400293 -0.65012264
0.8006725 0.82179046 -0.79752016 -0.20773536 0.6676703 0.7655758 -0.5284857 0.49947527
-0.7520987 0.34106132 -0.5433871 -0.87511206 0.732811 0.079781905 0.8491026 0.82540965
0.6697297 0.8810205 -0.7489963 -0.93293047 -0.9179131 0.6418879 -0.8223448 -0.6850677
0.7808688 0.6447331 -0.75943255 0.75220966 0.8538868 0.92207634 0.5624791 -0.51011014
0.7491071 -0.7268477 -0.5724665 0.70678526 0.8793889 -0.76261127 0.47548512 -0.80565405
0.5387581 0.47626275 0.21170148 -0.5162803 0.7319707 -0.57517785 -0.65633106 -0.7625475
-0.858833 0.8618179 -0.8313782 0.7354611 -0.6622973 0.7430264 -0.8708129 -0.6944011
-0.40053144 0.7500426 -0.628311 0.3212639 0.6885723 -0.78684866 -0.8456572 -0.12124509
-0.76781297 0.8220102 -0.7108689 0.6701168 0.7287582 -0.82292324 -0.42575273 -0.78103286
-0.6276382 0.7246584 -0.36623794 0.7022426 -0.8077167 -0.4992125 0.6861252 0.8418743
00000000: c72d e0bc d778 183d e2ad cd3c 47a1 39bd
00000010: c373 2d3d da7d 42bd 01f0 0e3d 6947 273d
00000020: 98ab 1c3c 027a 973c 0a1a 27bd 80ca dbbc
00000030: b24c 803c a4f8 5e3c 37f0 293d 9a92 2abd
00000040: 004d 3f3b b3ba c6bc 68fa e3bb bd24 11bd
00000050: b1de 283d 06fd fc3c b9bb 003d a315 3e3d
00000060: 00b5 593b 465c ec3c 1af1 8b3c 4dd2 14bd
00000070: e2e0 f93c 971b 183d 7a15 e8bc ca9a 09bd
00000080: 874b 363f d800 3cbf 5318 3cbf 0f0d 633f
00000090: 87c5 123f 7305 cabe c5bb 6dbf 1d40 50bf
000000a0: 31f1 1f3f 51fd 37bf 9540 f3be dca2 003f
000000b0: bf0d 553f e54f 2b3f 307c 1abf d287 42bf
000000c0: 24f6 5f3f c69a 093f 0d48 18bf ea4a c53e
000000d0: 7f6f 53bf 971c 343f 90a3 693f 8171 1a3f
000000e0: 9f74 18bf 7ba6 60bf 60d1 9c3e 5081 473f
000000f0: dcab 5ebf 47f3 62bf 7887 4cbf 0c50 fdbd
00000100: 0ff7 4ebf 3f89 1e3f b58c 1b3f 28c6 4ebf
00000110: 42f2 4cbf 95b1 39bf 5824 3f3f 9768 4b3f
00000120: 93cf 8fbe 9d00 0fbf 2653 55bf 9ac2 193f
00000130: a343 2c3f f698 40bf 2d51 4b3f fed2 4cbf
00000140: 9d5a 3f3f 5ab8 533f 828a 56bf 03c3 6a3f
00000150: 0dde 49bf cadc 553f 5228 a03d 5477 b6be
00000160: 84e3 273f 1881 51bf c543 0b3f be14 123f
00000170: b673 353f b812 5abf 2fac 50bf 887d 213f
00000180: 1a49 12bf 8422 f13e e998 4bbf 4da9 41bf
00000190: 12b6 28bf 29e1 453f 5044 333f 2d13 733f
000001a0: bf2c 55bf f79d 03bf ca40 64bf fc4c 393f
000001b0: ba05 53bf d9d6 00bf 82e3 223f c5dc 573f
000001c0: bc21 34bf dd7d 4b3f 4c81 2abf 8a21 1abe
000001d0: 8c83 48bf c743 0fbf 863b 163f 97b6 34bf
000001e0: b0cc 1cbf e0da 43bf 53b0 4bbf 3126 5a3f
000001f0: 7ae6 5b3f 7243 633f 6003 953e 7326 4bbf
00000200: 4ff6 0fbe 8acc 43bf 0266 49bf b078 19bf
00000210: 85c7 263f 33af 5dbf 73e2 4fbf 4a2b 993e
00000220: 2fb9 4fbf 181a 4ebf f2bb 423f 2131 6ebf
00000230: 7aed 123f ac7e 44bf a788 433f b831 29be
00000240: 0f00 593f 61d4 46bf 70f3 6fbf 4aff 5fbf
00000250: 6fba 46bf 964f 46bf a15c 3cbf 8a8d 33bf
00000260: d1f5 12bf 5581 25bf c445 0cbf fbba 043f
00000270: 8670 5bbf 3eb7 eabc 88e8 f03e 6786 55bf
00000280: a1ac 2f3f 57e9 543f 2d68 5ebf 10da 0b3e
00000290: f06a 34bf 2eaf 503f 6b76 523f 23b8 f03e
000002a0: 3e77 503f 3b87 3bbf 9c26 5e3f 44b6 45bf
000002b0: 8c45 273f 57e9 59bf 8f72 3dbf 706e 26bf
000002c0: dff8 4c3f dc60 523f 482a 4cbf 94b8 54be
000002d0: 71ec 2a3f c7fc 433f d74a 07bf 39bb ff3e
000002e0: 8a89 40bf 979f ae3e 6b1b 0bbf 5807 60bf
000002f0: 8099 3b3f b264 a33d ca5e 593f 0c4e 533f
00000300: 6873 2b3f 8f8a 613f 39be 3fbf 88d4 6ebf
00000310: 5afc 6abf c452 243f 3085 52bf 9960 2fbf
00000320: 05e7 473f 3a0d 253f 2c6a 42bf d090 403f
00000330: 5398 5a3f 320d 6c3f a1fe 0f3f 9496 02bf
00000340: 7cc5 3f3f b112 3abf 2a8d 12bf e1ef 343f
00000350: a21f 613f 7e3a 43bf c972 f33e 583f 4ebf
00000360: 0dec 093f b6d8 f33e 46c8 583e f22a 04bf
00000370: 6f62 3b3f db3e 13bf 5005 28bf 5036 43bf
00000380: 7bdc 5bbf 19a0 5c3f 34d5 54bf 2e47 3c3f
00000390: 518c 29bf fa36 3e3f 98ed 5ebf 45c4 31bf
000003a0: 7512 cdbe cb02 403f fdd8 20bf b47c a43e
000003b0: 4646 303f ea6e 49bf fe7c 58bf 594f f8bd
000003c0: 648f 44bf 436f 523f 81fb 35bf c68c 2b3f
000003d0: e68f 3a3f 19ab 52bf 43fc d9be c5f1 47bf
000003e0: e6ac 20bf 3783 393f 8a83 bbbe 2cc6 333f
000003f0: 86c6 4ebf c898 ffbe e7a5 2f3f 1385 573f
